aod_model_state_dict.pth (torch, 10515 bytes, 10 tensors)

conv1.weight f4 [3, 3, 1, 1]
000000 65 92 00 00 f4 a4 00 80 95 e5 ac bb 49 aa fa bd
       5.2516e-41 -5.9174e-41 -0.0052763917 -0.122395106
000010 d1 78 b6 bd 51 04 30 3e ba db 11 3f 18 f6 0b 3f
       -0.08909763 0.17189147 0.569759 0.54672384
000020 f0 ef 9d be
       -0.3084712

conv1.bias f4 [3]
000000 30 59 06 bc c4 f6 9f 3e 75 b7 a5 3d
       -0.008199975 0.31242955 0.08091632

conv2.weight f4 [3, 3, 3, 3]
000000 6e ae 00 00 b6 b7 00 80 ce 0c 00 80 5f b9 01 00
       6.2574e-41 -6.5903e-41 -4.593e-42 1.58334e-40
000010 e3 9e 00 00 5b 16 00 80 43 11 aa 06 38 10 00 80
       5.6998e-41 -8.02e-42 6.3972257e-35 -5.818e-42
000020 c0 27 3a 07 7c df 04 be 5e 4c e7 3c 15 eb 9b bd
       1.4004766e-34 -0.12975878 0.028234657 -0.07613198
000030 0d 50 95 bd a9 a6 0d 3e 4e 33 29 bc 6c 76 54 bd
       -0.07290659 0.13833107 -0.010327173 -0.05187075
000040 8f b2 e3 3d 74 1b 9a 3c 33 de 27 3e 6f 07 38 3e
       0.11118042 0.018811919 0.16393356 0.17971586
000050 5f b3 e6 3c a7 b1 f0 3d ad b2 b0 3d 11 cc 0e be
       0.028161703 0.117526345 0.0862783 -0.13945033
000060 a7 1e de 3d ca 66 19 3e 79 35 59 3e e2 f4 00 80
       0.1084569 0.14980617 0.21211804 -8.7847e-41
000070 9f 51 00 00 d4 23 00 00 95 c1 00 80 40 57 00 00
       2.928e-41 1.2853e-41 -6.9444e-41 3.13e-41
000080 6a 9c 00 80 bc 03 00 80 2a fb 00 00 4e 37 00 80
       -5.6111e-41 -1.34e-42 9.01e-41 -1.984e-41
000090 b8 3a 30 bd 88 96 b8 bd 1f b5 06 3e 46 2d c2 3d
       -0.04302475 -0.090130866 0.1315503 0.094812915
0000a0 a6 e6 fe bd ab 06 e8 bd 70 a2 0f be 97 8f 9f bd
       -0.124463364 -0.11329397 -0.14026809 -0.077910595
0000b0 ea f9 5f 3e fc d9 25 be a7 32 e7 3d f8 55 f0 3d
       0.21872678 -0.16196436 0.11288958 0.11735147
0000c0 d1 02 80 bc 25 f8 f1 3b 01 9a 1d 3e 90 5c 0b 3e
       -0.015626343 0.0073843175 0.15390779 0.13609529
0000d0 cc 37 08 be 95 cf 73 3c 35 0a 00 00 c2 d1 00 00
       -0.13302535 0.014881034 3.662e-42 7.5247e-41
0000e0 32 3b 00 80 16 ac 01 80 b3 d8 00 80 6f 56 00 00
       -2.1235e-41 -1.53568e-40 -7.7737e-41 3.1007e-41
0000f0 59 75 00 00 49 c1 00 80 19 e7 00 00 65 36 bf b6
       4.2096e-41 -6.9338e-41 8.2902e-41 -5.698576e-06
000100 0a 70 43 b5 bc 5a 69 b5 65 f2 59 b5 32 be 33 b5
       -7.28062e-07 -8.69313e-07 -8.119153e-07 -6.6959467e-07
000110 52 e9 0b b4 c9 28 62 b5 97 26 68 b5 ae 42 f7 36
       -1.3030265e-07 -8.425091e-07 -8.648289e-07 7.368936e-06
000120 00 0e 05 b7 0f 6d 74 b6 87 3a be b3 49 ae 19 b6
       -7.930677e-06 -3.6422314e-06 -8.8582105e-08 -2.2900224e-06
000130 e0 ff 2a 36 b1 19 84 b5 66 47 14 34 8e b3 b4 35
       2.5480913e-06 -9.842244e-07 1.3809549e-07 1.3463302e-06
000140 e6 27 ad b6
       -5.1604466e-06

conv2.bias f4 [3]
000000 15 96 8a bd b6 fd d9 3d bb ee 18 ba
       -0.06766907 0.10644095 -0.00058339135

conv3.weight f4 [3, 6, 5, 5]
000000 77 12 00 80 44 1b 00 00 36 7a 00 00 97 1f 01 80
       -6.624e-42 9.781e-42 4.3841e-41 -1.03168e-40
000010 cb 8a 00 80 b9 c2 00 00 99 32 00 80 9e d8 00 80
       -4.979e-41 6.9853e-41 -1.8151e-41 -7.7708e-41
000020 0f c4 00 00 87 dc 00 80 d2 ad 00 00 ee 15 00 80
       7.0333e-41 -7.911e-41 6.2355e-41 -7.867e-42
000030 fe 46 00 80 00 43 00 80 e8 29 00 00 29 3d 00 00
       -2.5467e-41 -2.4035e-41 1.5033e-41 2.194e-41
000040 43 e5 00 00 49 49 00 80 5b e6 00 00 7a 31 01 00
       8.2244e-41 -2.629e-41 8.2636e-41 1.09584e-40
000050 a2 dd 00 00 c2 4e 00 00 26 74 01 80 88 2b 00 80
       7.9507e-41 2.8253e-41 -1.33502e-40 -1.5616e-41
000060 b4 41 00 00 e4 65 06 bd 8d 42 1b 3d 5e 2d d0 bc
       2.357e-41 -0.032812014 0.037905265 -0.025412258
000070 fb fc 86 3d e5 ae b1 bc e9 a5 8c 3d ea de c7 3b
       0.06591221 -0.021689842 0.06867582 0.0060995715
000080 ba 12 90 3b 2c 12 09 bd d0 e0 04 bc 69 08 9e 3c
       0.0043967636 -0.033464596 -0.00811024 0.01929112
000090 6f 1d 02 3d cb b0 59 bc c5 93 9c 3d aa 04 8f bc
       0.03176635 -0.01328678 0.07645372 -0.017458279
0000a0 ed 16 db bc 06 9c 38 3d b2 02 a3 3d 36 8a 17 bd
       -0.02674433 0.04507067 0.079594985 -0.036997043
0000b0 bc eb f8 bc 6b 05 04 bc 56 7d a9 3d 92 01 0e 3d
       -0.030385844 -0.008057932 0.08275859 0.034669466
0000c0 95 b1 9b bc 12 b7 a6 bc 4e 3d 9f bc e6 79 10 3d
       -0.019005576 -0.020350967 -0.019438412 0.0352725
0000d0 0e 5f 47 bc 2b 5d 21 bd 51 e1 84 3c ab c4 17 3d
       -0.012168659 -0.039395493 0.01622072 0.03705279
0000e0 34 4f 10 3d 14 bb 97 3d f2 b3 6d bc 1c 80 a1 3d
       0.035231784 0.07408729 -0.014508234 0.07885763
0000f0 29 e6 c7 bc e5 ef 91 bc 0d 82 86 3d 08 d4 65 3d
       -0.024401741 -0.017814586 0.06567774 0.056110412
000100 23 e4 8a 3d a0 72 13 3d 36 dd dc bc b3 3a 51 3d
       0.06781795 0.035997987 -0.02696095 0.05108137
000110 ab d5 98 3d c0 9e 52 bd 2f 8a cc bb b6 c7 05 bd
       0.07462629 -0.051420927 -0.0062420587 -0.032661162
000120 09 e3 79 bc c2 d5 56 bd 72 65 4f bc b6 77 41 3d
       -0.015251883 -0.05244995 -0.012658464 0.047233306
000130 15 ec fa bc b2 a7 90 3c 49 32 f2 bb 04 5a 2e 3d
       -0.03063015 0.017658088 -0.0073912484 0.042566314
000140 c8 1a 92 bd 2c 83 11 3d 0f 89 9e bd 57 a5 d3 3c
       -0.07134014 0.035525486 -0.077409856 0.025835676
000150 e2 12 9e bd b7 0b e4 3c ec 67 b5 bc 6a e9 26 3c
       -0.07718445 0.027837617 -0.02214428 0.010187486
000160 b2 3e 35 bd cb 4b f3 3c 69 92 30 3d b1 a2 2c bd
       -0.044249244 0.029699227 0.043108378 -0.042147342
000170 d2 84 87 3c 3a a9 13 3d b7 14 46 3d 33 e3 85 3d
       0.016542826 0.03605006 0.0483596 0.065374754
000180 be 73 30 bd d2 f4 9c bd 73 5e 30 3d b9 d9 0b 3b
       -0.04307913 -0.07663883 0.043058824 0.002133949
000190 33 66 4c 3d b3 30 be bc c7 c5 a1 bb 26 43 98 3c
       0.049902152 -0.023216581 -0.004936907 0.018586706
0001a0 f1 d7 0e bd 9e 3f 3c bc 42 a2 c6 3c bf fc 9c 3c
       -0.034873907 -0.011489777 0.024247292 0.019163487
0001b0 fd d7 36 bd 9d f1 34 3d 49 10 c9 bc e7 37 04 bc
       -0.044639576 0.044175733 -0.024543898 -0.008069969
0001c0 f9 23 b9 bc c6 df be 3b c2 17 2b 3c 9d 59 15 bd
       -0.02260016 0.0058250157 0.010442676 -0.036462415
0001d0 f4 73 09 bd 7d 41 e2 bc 5d 44 ba 3c 4b 09 6c 3c
       -0.033557847 -0.027619118 0.022737676 0.0144065125
0001e0 52 e5 b5 3c 07 bb 7d 3d 22 02 2f bd 28 75 cd bc
       0.022204075 0.06194594 -0.042726643 -0.025080279
0001f0 99 16 ef bc af c1 00 00 20 86 00 80 75 9c 00 80
       -0.02918558 6.948e-41 -4.8115e-41 -5.6126e-41
000200 01 09 00 80 ff 1d 00 00 14 ba 00 00 a0 b5 00 80
       -3.23e-42 1.076e-41 6.6752e-41 -6.5155e-41
000210 42 19 00 00 69 29 00 00 8f d1 00 80 6f 03 00 00
       9.061e-42 1.4855e-41 -7.5175e-41 1.232e-42
000220 55 68 00 00 47 67 00 80 bd 46 00 80 b5 69 00 00
       3.7427e-41 -3.7049e-41 -2.5376e-41 3.792e-41
000230 4b 68 00 80 f0 08 00 00 19 d0 00 80 3a 1c 00 00
       -3.7413e-41 3.206e-42 -7.4651e-41 1.0126e-41
000240 6b 3e 00 00 6e 9b 00 00 a6 73 00 00 c1 a0 00 80
       2.2391e-41 5.5758e-41 4.1487e-41 -5.7668e-41
000250 a8 a6 00 00 33 1b 00 80 d8 80 00 00 75 c5 00 00
       5.9785e-41 -9.757e-42 4.622e-41 7.0834e-41
000260 e7 59 00 80 c9 d3 00 00 91 c1 00 00 4e 38 00 00
       -3.2251e-41 7.5974e-41 6.9439e-41 2.0198e-41
000270 57 44 00 00 7d 1a 01 80 7b c5 00 00 63 bb 00 80
       2.4516e-41 -1.01338e-40 7.0843e-41 -6.7222e-41
000280 56 81 00 00 65 00 01 80 6b 1d 00 00 fd 14 00 80
       4.6397e-41 -9.1977e-41 1.0553e-41 -7.529e-42
000290 2f d0 00 00 5c 08 00 00 2d c8 00 00 e6 61 00 80
       7.4682e-41 2.999e-42 7.181e-41 -3.512e-41
0002a0 f8 5a 00 80 6d 90 00 00 ec 1e 00 00 a4 eb 00 80
       -3.2633e-41 5.181e-41 1.1093e-41 -8.4532e-41
0002b0 1e de 00 00 cc 47 00 00 d8 d6 00 80 a0 a6 c7 bb
       7.968e-41 2.5756e-41 -7.7071e-41 -0.0060928613
0002c0 99 54 bb 3d ba 1a de 3c 36 c8 66 bb d9 6e 40 3d
       0.09146995 0.027112354 -0.003521455 0.046980713
0002d0 fc 1d a1 3d 85 52 cf 3d 59 a1 2c bc 2e fd e2 bb
       0.07867047 0.10123161 -0.010536515 -0.006927154
0002e0 61 5f 4a bd ea 21 52 3d 45 9d e4 b9 46 d9 09 3d
       -0.049407367 0.051301874 -0.00043604724 0.033654474
0002f0 c6 7c 3a 3d 2e 1e 39 bc dd 09 b3 3d fc 5d dd 3d
       0.04552915 -0.011298699 0.08742116 0.10808942
000300 b3 cf 99 bc 58 9e b2 bc a0 a7 f1 3b 69 c8 9a 3d
       -0.018775797 -0.02180402 0.007374719 0.075577565
000310 28 f4 0a bd c5 de be 3d 4d 5c 4e 3d cb 61 a4 3d
       -0.03392425 0.09319834 0.050380994 0.08026465
000320 52 c9 62 3d 29 09 86 3d 37 f5 6c bd ef 17 8b bd
       0.055367775 0.06544716 -0.057851043 -0.06791674
000330 15 1c 24 3d cb b5 19 bc 61 93 36 3d 8d 46 64 bc
       0.040065844 -0.009381722 0.044574145 -0.013932836
000340 42 ae 23 3d 09 1d 8a 3d 19 dd bc bc 07 79 00 3d
       0.039961107 0.06743819 -0.023054646 0.03136542
000350 41 72 a3 bc 04 b3 96 3d 1a fd 76 3d 6e b1 d7 3c
       -0.019951941 0.07358363 0.06029997 0.026329722
000360 23 40 47 3d c4 64 3c 3d ca b4 86 bd 37 ce 27 3d
       0.04864515 0.045994535 -0.065774515 0.040968146
000370 af fa 97 3d 32 4d a0 3d 88 50 02 3d dd 9c 53 3d
       0.07420861 0.07827224 0.03181508 0.05166327
000380 b9 fc d0 3c 95 56 26 3d 25 1e 87 3d 30 34 b2 bc
       0.025511133 0.040609915 0.065975465 -0.0217534
000390 5b cb 92 bd 48 be 1a 3d 49 0b 46 bd 2d ee a8 bd
       -0.07167693 0.037779123 -0.048350606 -0.082485534
0003a0 90 f3 fd bc 3e ea 4a 3d 1b 81 0c bd 47 e0 7c bc
       -0.030999929 0.049539797 -0.034302812 -0.015434331
0003b0 35 0d 56 bd 82 66 a8 3c 7a b0 37 3d 58 1a 6b 3d
       -0.05225869 0.020556692 0.044846036 0.05739817
0003c0 ac b0 1f 3c ec 3c 88 bd 62 93 27 3d fa e6 7f bd
       0.009746712 -0.06652245 0.04091204 -0.062476136
0003d0 98 34 5b 3d 90 4c 5e bd b5 92 3e 3d 5d 42 72 bc
       0.053516954 -0.054272234 0.04652663 -0.01478633
0003e0 d2 89 0a bd 07 23 94 bd 8a 66 8c 3d 7c 2c 9a bc
       -0.033822842 -0.072332434 0.06855495 -0.01882004
0003f0 07 fb 3a bd 55 6e d6 bc 0f e0 07 3d 29 2a e4 3c
       -0.045649555 -0.026175657 0.033172663 0.027852135

conv3.bias f4 [3]
000000 45 26 83 bc d5 22 31 3d 5f c1 df bc
       -0.01600946 0.04324611 -0.027313886

conv4.weight f4 [3, 6, 7, 7]
000000 7a 5e de bb df b0 19 bd ee b9 92 bc 43 78 22 bc
       -0.006786165 -0.037522193 -0.017910924 -0.009916368
000010 a5 0e a5 bd 6e c4 57 bc 12 99 b4 bd 97 b2 ae b8
       -0.08059434 -0.013169391 -0.08818258 -8.3302315e-05
000020 ab 2f 7b bc 01 a9 80 bd 54 e9 40 bd 19 ff 82 bd
       -0.015331189 -0.06282235 -0.04709752 -0.06396312
000030 fd da ab bd 30 c1 90 bd 8f 7c 0e bd 55 5c 6a bd
       -0.08391378 -0.070680976 -0.034786757 -0.05721696
000040 cf 17 58 bd 88 30 72 bd 23 1c 98 bd 30 62 86 bc
       -0.05275708 -0.059128314 -0.07427242 -0.016404241
000050 b4 f7 98 bd f2 51 28 bd 80 b7 4c bc f4 64 c5 bc
       -0.074691206 -0.041093774 -0.012494922 -0.02409599
000060 14 84 dc bd 43 b0 c1 bc d3 7f c6 bd c7 83 74 bd
       -0.107673794 -0.023643618 -0.09692349 -0.059695985
000070 99 26 8c bd 8e 68 81 bd bf e6 f2 bc 66 2b ae bc
       -0.068432994 -0.0631877 -0.029651044 -0.021260928
000080 dd 8c e7 bd ae bd 6e bd a2 a2 96 bd 91 5d 03 bd
       -0.113061644 -0.05828636 -0.073552385 -0.032071654
000090 71 09 20 bc 08 89 f5 3a ab bc a1 bd 38 e5 1d bd
       -0.009767876 0.0018732855 -0.07897314 -0.03854868
0000a0 8b 35 14 bd 31 17 ae bc 1b dd af bc 34 38 96 bc
       -0.036183875 -0.021251293 -0.021467736 -0.018337347
0000b0 6f d5 5d bd 21 6b 44 bd 17 8e 28 bd b0 39 cb bc
       -0.054158624 -0.04795373 -0.041151132 -0.024807781
0000c0 d6 b6 c6 bc ce c7 a3 bc 37 55 81 3c 41 d9 ff bb
       -0.024257105 -0.019992735 0.015787704 -0.007807881
0000d0 33 6b 24 bd 13 b9 04 bd f5 08 3c 3c a1 a3 47 3b
       -0.040141296 -0.032403063 0.011476745 0.003046252
0000e0 57 fc 31 bd d5 1a ab 3c 96 88 ee bc e7 c7 3d 3c
       -0.04345354 0.020886818 -0.029117864 0.011583305
0000f0 85 8d e3 bc 28 93 0c bc 2d ea 62 bd c1 b7 f3 3b
       -0.027777443 -0.008580007 -0.05539911 0.0074376767
000100 a3 f2 af bc ba fe 9c bc 30 1e eb 3c 5b 0e 5a bd
       -0.021478003 -0.019164432 0.028700918 -0.053236347
000110 b9 9b 59 bd 81 31 28 bd f5 c4 0f 3d 6d 8a d8 3c
       -0.053127024 -0.041062836 0.035099942 0.026433194
000120 d6 d1 af 3c dc 21 c0 bb 4b 71 00 bd 42 22 87 bc
       0.021462362 -0.0058634114 -0.031358045 -0.016495828
000130 d2 7b 17 bd e3 b5 44 3c de c3 73 bd 56 b3 08 bd
       -0.03698332 0.012006256 -0.059512965 -0.033374153
000140 f7 4f 79 bd 65 91 58 bd ff cb 31 3b 44 4c 56 ba
       -0.060867276 -0.052873034 0.0027129648 -0.00081748166
000150 d3 22 4e 3b 7b 5c 33 bd 6d d3 1e bd 4c 53 6e bd
       0.0031453862 -0.043789368 -0.03877585 -0.058184907
000160 5b ee 0b bb 97 fc 60 3c 91 58 7e 3b 87 a4 9d bc
       -0.0021351788 0.013732097 0.0038810114 -0.019243492
000170 08 5b d4 bb 67 e7 21 bd d7 ef 3e bd 92 df a9 bc
       -0.0064805783 -0.039527323 -0.046615448 -0.02073649
000180 50 82 ad bc 76 b1 dc 3c 84 41 00 00 32 66 00 00
       -0.021180302 0.026940089 2.3503e-41 3.6661e-41
000190 b7 cb 00 80 1f a3 00 80 47 b2 00 80 f8 c9 00 00
       -7.3079e-41 -5.8517e-41 -6.3954e-41 7.2453e-41
0001a0 6c 1f 00 80 cd 58 00 80 34 cc 00 80 ab 65 00 80
       -1.1272e-41 -3.1856e-41 -7.3254e-41 -3.6472e-41
0001b0 67 c8 00 00 83 b0 00 00 d3 7f 00 80 5d b3 00 80
       7.1891e-41 6.332e-41 -4.5855e-41 -6.4343e-41
0001c0 66 86 00 80 eb bb 00 00 8e 39 00 80 09 17 00 80
       -4.8213e-41 6.7412e-41 -2.0647e-41 -8.263e-42
0001d0 0a aa 00 80 17 18 00 80 c1 21 00 80 eb 8a 00 80
       -6.0999e-41 -8.642e-42 -1.2109e-41 -4.9834e-41
0001e0 93 0a 00 80 a0 0f 00 00 42 ca 00 80 37 37 00 00
       -3.793e-42 5.605e-42 -7.2556e-41 1.9807e-41
0001f0 4f c1 00 80 3a b3 00 80 c6 3b 00 00 08 21 00 80
       -6.9346e-41 -6.4294e-41 2.1443e-41 -1.185e-41
000200 98 91 00 80 d7 1a 00 80 e2 b1 00 00 af b0 00 80
       -5.2229e-41 -9.628e-42 6.3812e-41 -6.3382e-41
000210 a6 54 00 00 df 8f 00 80 18 0a 00 80 71 bc 00 00
       3.0366e-41 -5.1611e-41 -3.621e-42 6.76e-41
000220 b3 a5 00 00 83 41 00 80 7b 3d 00 80 77 37 00 00
       5.9442e-41 -2.3501e-41 -2.2055e-41 1.9897e-41
000230 59 0a 00 80 63 64 00 80 d4 9a 00 00 96 c3 00 80
       -3.712e-42 -3.6012e-41 5.5542e-41 -7.0163e-41
000240 4d 68 00 80 4d bf 00 00 a7 a0 00 80 e0 f6 41 bd
       -3.7416e-41 6.8626e-41 -5.7631e-41 -0.04735458
000250 e5 e0 22 3a d4 d8 9e 3c c9 d1 c8 3c 82 f6 d1 bc
       0.00062133215 0.019390501 0.024514096 -0.02563024
000260 b9 4e 4d bc 17 03 89 bd 8f 31 f5 bc 38 18 a4 bc
       -0.012530976 -0.066900425 -0.029930858 -0.02003108
000270 f9 5d 79 3b b3 7f 46 bd 5d eb 23 bd 75 00 82 bd
       0.0038050397 -0.048461627 -0.04001938 -0.063477434
000280 86 ac b7 3c 7a f4 ac 3c 26 7a 2b bd 69 79 96 bc
       0.022421133 0.02111267 -0.041864537 -0.01836844
000290 fe 55 64 bb fc d8 80 bd 88 0c 81 bc 4c 95 a0 3b
       -0.0034841294 -0.062913865 -0.015753046 0.00490061
0002a0 ab e5 a2 3b f4 6f 23 3c da c0 83 bd ea ee 89 bd
       0.004971226 0.009975422 -0.06433268 -0.06735022
0002b0 be 39 8e 3c 21 e1 1a bd e7 56 b9 39 17 eb 0b bd
       0.017361518 -0.037812356 0.00035350697 -0.034159746
0002c0 74 bc 83 3c 37 00 07 3c 26 cb 8a 3b 60 15 89 bc
       0.016081072 0.008239797 0.004235643 -0.016733825
0002d0 11 d7 c5 3b 6d 31 8d bd 71 13 87 bc 2c c8 af bc
       0.006037601 -0.06894193 -0.016488763 -0.021457754
0002e0 b2 a2 8a bd 05 b5 25 3c 0a 98 ce bc b0 46 04 bd
       -0.06769313 0.010113959 -0.025218982 -0.032293975
0002f0 ca 59 2f 3c 72 af a5 bc d4 22 d7 3c 08 48 5f bb
       0.01070256 -0.02022526 0.026261725 -0.0034070034
000300 00 26 1a bd 09 da 64 bd 97 94 84 bb fa 7c 5a bd
       -0.037633896 -0.055871997 -0.0040460336 -0.053341843
000310 00 33 6e 3d ab 5e 09 3c 4f dd eb bc 03 63 1f bd
       0.058154106 0.008384387 -0.028792052 -0.038912784
000320 20 f4 e0 3c a4 41 24 3d 5c 17 3c 3c da df 20 3c
       0.027460158 0.040101662 0.011480179 0.009818995
000330 83 4e 39 3d 15 28 00 3d 65 dc 28 bd 03 43 99 bc
       0.04524089 0.031288225 -0.04122581 -0.018708711
000340 76 f1 28 bd bc ae f6 ba ff f3 8b 3d ef 0a 1d 3d
       -0.0412459 -0.0018820385 0.06833648 0.038340505
000350 ad 89 78 bc 3f fe 73 3d aa 44 3b 3d 8e e1 42 3d
       -0.015169543 0.05956864 0.04571978 0.047578387
000360 db 15 36 bc a7 30 6d bc f2 ce 0e 3d 7c 51 70 3d
       -0.011113609 -0.014476932 0.034865327 0.05867146
000370 df 72 c2 bc 97 6d c8 3c 9b f1 b7 3c 70 5f f4 3c
       -0.023736415 0.024466319 0.022454074 0.029830664
000380 e6 5b d7 3c 28 69 99 bb d9 4e 49 3d 5a 5a d8 3a
       0.026288938 -0.004681725 0.04914746 0.0016506419
000390 6e a4 39 bc 80 07 6b 3d ff 3a fb 3c 16 53 5c 3a
       -0.011330707 0.0573802 0.03066778 0.0008404715
0003a0 4f 0b 53 3b 75 b2 8c 3d 55 16 bf 3b b1 65 68 3d
       0.0032202785 0.068699755 0.0058315196 0.056737605
0003b0 21 61 39 3d c4 3a e9 bb e4 48 8f 3d d2 88 3d 3d
       0.045258645 -0.007117601 0.06996325 0.04627306
0003c0 e6 55 66 bc 8e 12 c7 3c 4a 60 1c bd dc ab 1a bc
       -0.014058566 0.02430084 -0.038177766 -0.0094403885
0003d0 40 22 38 bc a0 1e 93 3b 20 04 a6 bb e2 05 a6 bc
       -0.011238635 0.004489735 -0.0050664097 -0.020266477
0003e0 da dd 22 3c e5 b6 3a 3d d4 58 72 3d 23 a3 a1 bc
       0.009940589 0.045584578 0.059166744 -0.01973111
0003f0 81 8e 2a 3d 8f 63 5b 3d f5 da 10 bb f4 89 03 3b
       0.04163981 0.053561743 -0.0022103165 0.002007124

conv4.bias f4 [3]
000000 76 20 67 3d 3d 92 2e 3c cb 1c 3d bc
       0.05642744 0.010654983 -0.011542509

conv5.weight f4 [3, 12, 3, 3]
000000 ba 37 00 00 36 24 00 00 73 03 00 00 13 98 00 00
       1.9991e-41 1.299e-41 1.237e-42 5.4554e-41
000010 d6 57 00 00 88 53 01 80 78 ed 00 80 ef 9a 00 80
       3.151e-41 -1.21801e-40 -8.5188e-41 -5.558e-41
000020 e4 2f 00 00 33 df be 3d 26 dc 43 bd 25 b4 3a 3d
       1.718e-41 0.093199156 -0.04781737 0.045581955
000030 18 03 8e 3d 2d e9 81 bd 1a fa 42 bd 28 0f 95 3d
       0.06934184 -0.06343303 -0.047601797 0.072782815
000040 42 ee 1e 3b af 53 a1 bc af 77 a9 3d 1f d6 9c bc
       0.00242509 -0.019693224 0.08274781 -0.01914507
000050 a3 a0 66 bd 6a 60 15 3d aa d1 c2 3d 78 53 87 3d
       -0.05630554 0.0364689 0.095126465 0.06607717
000060 de 8a 49 3d fd 4a 95 3d 4e ef be 3d f0 bd b8 3d
       0.0492047 0.072896935 0.093229875 0.09020603
000070 ab a8 0f 3d 1a 7c 4e 3c cc 9e 92 3d 2e 0c 9f 3d
       0.035072964 0.01260283 0.07159194 0.07765995
000080 76 05 05 bd 9b 1b 23 3d 27 70 84 bd 1e d1 59 bd
       -0.03247591 0.03982125 -0.06466704 -0.053177945
000090 72 43 44 bd 32 27 d1 3d de 32 17 bd 9b 5f f4 3d
       -0.047915883 0.10212554 -0.036913745 0.11932298
0000a0 16 5f cd 3d 54 df ae 3c 05 5e 42 bc 2b 4a a2 3d
       0.10027902 0.021346726 -0.011863236 0.07924303
0000b0 51 11 6b 3d 0e 3f 00 00 74 2b 00 80 96 bc 00 00
       0.05738956 2.262e-41 -1.5588e-41 6.7652e-41
0000c0 6c 0a 00 00 4e a1 00 80 6e b9 00 80 20 29 00 00
       3.739e-42 -5.7865e-41 -6.652e-41 1.4753e-41
0000d0 ba 29 00 80 75 a8 00 80 08 38 64 3c 3e 74 8e 3d
       -1.4969e-41 -6.0431e-41 0.0139293745 0.06955765
0000e0 a7 30 19 bd 69 6a 1e 3c 66 cd 8d bc b3 37 95 3d
       -0.037399914 0.009668925 -0.017309856 0.072860144
0000f0 40 51 3e 3d ba 39 72 bd 5a 4e 69 3d de e2 4d 3d
       0.046464205 -0.059137084 0.056959487 0.050265186
000100 89 99 d7 3d 3d 24 e9 3c 28 28 ca bc f3 f7 b0 3d
       0.105273314 0.028459663 -0.024677351 0.086410426
000110 b0 d9 b4 3d f1 c0 4e 3d e5 34 7a bd 48 56 4b bc
       0.08830583 0.050476972 -0.0610856 -0.012410708
000120 04 ae a0 3c 44 5e 8b 3d 19 a9 a0 3d 64 e8 c7 3d
       0.019614227 0.06805089 0.07844753 0.09761122
000130 cc 05 aa bc d5 63 40 3c 5b bf 9b 3d 97 50 86 bd
       -0.020754717 0.011742552 0.076048575 -0.0655834
000140 d6 30 6d 3d 9e 3e 7e 3d 07 34 53 3c 5f 9e 59 3d
       0.0579079 0.062071435 0.012890822 0.05312955
000150 e1 d5 b2 3d 0a f7 97 bc 4f 09 b6 bc 88 3f d2 3d
       0.087322004 -0.018550415 -0.022221236 0.10266024
000160 71 de 29 3d db 42 fa 3b 46 12 d3 3d a8 11 15 bd
       0.041471902 0.0076373643 0.1030622 -0.03639379
000170 58 6b d6 3c 16 31 88 bb 63 2e 7e 3d e2 e6 29 bc
       0.026174232 -0.004156242 0.062055957 -0.010369988
000180 28 14 03 bd 17 4a 7d bd 6c d8 e4 3d a2 14 2d bd
       -0.032001644 -0.061838236 0.11174092 -0.042256005
000190 8a bf 4d bd 81 7a 95 3d 5b 84 c7 3d b9 c7 f5 bc
       -0.050231494 0.072987564 0.09742042 -0.030002462
0001a0 39 2f 3c bd 96 95 ec 3d ac 5f 82 bd 9b 91 d4 bb
       -0.045943473 0.11551969 -0.06365904 -0.006487084
0001b0 96 53 00 00 53 c8 00 80 42 02 00 00 f0 9c 00 80
       2.9985e-41 -7.1863e-41 8.1e-43 -5.6299e-41
0001c0 4b 6e 00 00 5c 36 00 00 0d 2e 01 80 9b ea 00 00
       3.9566e-41 1.95e-41 -1.08355e-40 8.416e-41
0001d0 fa e3 00 00 00 f5 e8 bc 1c d8 8d bd 33 4d 22 bd
       8.1783e-41 -0.028437138 -0.06925985 -0.039624404
0001e0 b1 67 a8 3d b9 f8 8e bd 06 e5 b5 3d bc fc 50 3d
       0.082229026 -0.06981034 0.088815734 0.051022276
0001f0 5e cb 81 bd d2 5d a4 3d 47 59 d8 3d c8 59 3d bd
       -0.06337617 0.08025707 0.10563903 -0.0462282
000200 cc 9d 32 bd b9 0e 66 bd 3f 30 8b 3d c6 96 dd bb
       -0.043607518 -0.056166384 0.067963116 -0.0067623584
000210 36 a4 9c 3d 4e 0b a3 3d 6f ca 91 bd cb 29 d9 3c
       0.07648508 0.079611406 -0.07118689 0.026509186
000220 d5 d8 6d 3c c3 46 53 3c 3e fa 88 bd 96 d6 c2 3d
       0.014517029 0.012895289 -0.06688355 0.09513585
000230 dd c0 b7 3c 8a b3 10 3d 49 5f 9c 3d cc 7e 0d 3b
       0.022430832 0.03532747 0.07635362 0.002159047
000240 4e 18 8e 3d 77 4c 8d bd b9 10 2d 3d 1f 02 c9 3d
       0.069382295 -0.0689935 0.042252276 0.09814858
000250 a4 48 cc 3d 6e e7 c3 3c ab 1e f9 bc c5 0b b8 3d
       0.099747926 0.023914065 -0.030410131 0.0898662
000260 db d7 22 3d 81 4c 00 80 bf bb 00 80 8a b7 00 80
       0.039756637 -2.7444e-41 -6.735e-41 -6.5841e-41
000270 2a 85 00 80 18 02 00 80 ee 21 00 80 b3 9f 00 80
       -4.777e-41 -7.51e-43 -1.2172e-41 -5.7289e-41
000280 25 9b 00 80 fa b7 00 00 7e 5f 2b 3c e3 1e b2 3d
       -5.5655e-41 6.5998e-41 0.010459779 0.086972974
000290 37 db 9f bd 70 55 af bc 0a cf 98 bc 79 e6 99 bd
       -0.07805484 -0.021403044 -0.018653411 -0.07514662
0002a0 db 9f 4a 3c db b1 ad 3d 3c e8 1b bd 95 0a b7 3d
       0.012367214 0.08481189 -0.038063273 0.08937565
0002b0 76 ba 66 3d 36 f9 68 bd a4 be 8b 3d 97 59 f8 3c
       0.056330167 -0.05687829 0.06823471 0.030316157
0002c0 8d f8 60 bd 56 a4 93 3c bf 3a 16 3d 66 6d a6 bc
       -0.054924536 0.018022697 0.03667712 -0.020315837
0002d0 cc 11 0b 3d a6 66 92 bc 75 c4 d7 bc 14 9a b7 bd
       0.03395252 -0.017871212 -0.026338795 -0.08964935
0002e0 1b d8 99 3d 8a 47 2b bd 44 d5 46 3d 6a f1 88 bd
       0.07511922 -0.04181627 0.04854323 -0.06686671
0002f0 dc ec 4d 3c 73 b3 5d bc 06 2a a3 3c 75 2c da 39
       0.012568679 -0.013531554 0.0199175 0.00041613323
000300 8f a9 3e 3d f3 bf 05 3d ce a8 d2 3d 27 6f d3 3d
       0.046548422 0.03265376 0.10286103 0.10323935
000310 88 dc a6 3b 69 a4 84 bd 53 48 96 bc a8 a9 ad 3d
       0.0050922073 -0.06476671 -0.018345034 0.08479625
000320 8b 10 02 3d a0 3b 49 bd 61 ed b4 3d 85 b1 ad 3d
       0.031754058 -0.04912913 0.08834339 0.08481125
000330 a6 fc c0 bb 8e 65 b8 bc 77 15 cb 3d 4f 18 9b bd
       -0.005889493 -0.022509363 0.099162035 -0.07572996
000340 f2 c0 9d bd 64 59 a0 3d 88 08 fd bc 59 71 b9 3d
       -0.07702817 0.0782955 -0.030887857 0.090548225
000350 b9 e2 c5 3d 66 c9 a0 bd c6 40 a6 3d e4 86 08 3d
       0.096623845 -0.07850914 0.08117823 0.033331767
000360 61 86 00 80 d0 dd 00 00 ee 07 00 00 7e 5e 00 80
       -4.8206e-41 7.9571e-41 2.845e-42 -3.3897e-41
000370 85 d1 00 00 e6 ca 00 00 e7 1c 00 00 a6 9d 00 80
       7.5161e-41 7.2786e-41 1.0368e-41 -5.6554e-41
000380 3a 99 00 00 88 4d ef 3c 31 80 9b 3c de 42 f3 3c
       5.4967e-41 0.029211774 0.018982025 0.02969497
000390 7a d3 38 3d 82 9e ff 3c e0 bd d7 3c 33 1d f4 3c
       0.045123555 0.031203512 0.026335657 0.02979908
0003a0 d8 6b 01 3d 35 91 e7 3c 4a 0f 58 3c 3b 84 ec 3c
       0.03159699 0.028267482 0.013187239 0.028871646
0003b0 cf 47 1d 3c 9e 1f 9c 3b 72 2e 9c 3c 4e b0 6b 3c
       0.00959964 0.0047645112 0.019065116 0.014385296
0003c0 f7 9d 12 3c ac 64 45 3c 0d 07 ff 3b 99 a6 5a 3c
       0.008948795 0.012047928 0.007782823 0.013345384
0003d0 75 55 c8 3c 50 6c 36 3c cd 94 6a 3c b5 10 21 3c
       0.024454812 0.011134222 0.014317703 0.009830643
0003e0 14 cb 02 3c ad 94 02 3c 0d 28 2a 3c f6 76 76 3a
       0.007982988 0.007970017 0.010385525 0.0009401882
0003f0 27 5d 92 3c 81 df 87 3b 7a 33 f0 ba 71 3f 3c 3c
       0.017866684 0.004146517 -0.0018325888 0.011489735

conv5.bias f4 [3]
000000 d3 81 69 bd 3b 6e b6 3d ba 9f 7b 3c
       -0.057008576 0.089077435 0.015357906
